…
cale=0.5, seed=0, shear=0.0, show=False, show_boxes=True, show_conf=True, show_labels=True, simplify=True, single_cls=False, source=None, split=val, stream_buffer=False, task=detect, time=None, tracker=botsort.yaml, translate=0.1, val=True, verbose=True, vid_stride=1, visualize=False, warmup_bias_lr=0.1, warmup_epochs=3.0, warmup_momentum=0.8, weight_decay=0.0005, workers=8, workspace=None\nOverriding model.yaml nc=80 with nc=3\n\n                   from  n    params  module                                       arguments                     \n  0                  -1  1      2784  ultralytics.nn.modules.conv.Conv             [3, 96, 3, 2]                 \n  1                  -1  1    166272  ultralytics.nn.modules.conv.Conv             [96, 192, 3, 2]               \n  2                  -1  2    389760  ultralytics.nn.modules.block.C3k2            [192, 384, 2, True, 0.25]     \n  3                  -1  1   1327872  ultralytics.nn.modules.conv.Conv             [384, 384, 3, 2]              \n  4                  -1  2   1553664  ultralytics.nn.modules.block.C3k2            [384, 768, 2, True, 0.25]     \n  5                  -1  1   5309952  ultralytics.nn.modules.conv.Conv             [768, 768, 3, 2]              \n  6                  -1  4   9512128  ultralytics.nn.modules.block.A2C2f           [768, 768, 4, True, 4, True, 1.2]\n  7                  -1  1   5309952  ultralytics.nn.modules.conv.Conv             [768, 768, 3, 2]              \n  8                  -1  4   9512128  ultralytics.nn.modules.block.A2C2f           [768, 768, 4, True, 1, True, 1.2]\n  9                  -1  1         0  torch.nn.modules.upsampling.Upsample         [None, 2, 'nearest']          \n 10             [-1, 6]  1         0  ultralytics.nn.modules.conv.Concat           [1]                           \n 11                  -1  2   4727040  ultralytics.nn.modules.block.A2C2f           [1536, 768, 2, False, -1, True, 1.2]\n 12                  -1  1         0  torch.nn.modules.upsampling.Upsample         [None, 2, 'nearest']          \n 13             [-1, 4]  1         0  ultralytics.nn.modules.conv.Concat           [1]                           \n 14                  -1  2   1331328  ultralytics.nn.modules.block.A2C2f           [1536, 384, 2, False, -1, True, 1.2]\n 15                  -1  1   1327872  ultralytics.nn.modules.conv.Conv             [384, 384, 3, 2]              \n 16            [-1, 11]  1         0  ultralytics.nn.modules.conv.Concat           [1]                           \n 17                  -1  2   4579584  ultralytics.nn.modules.block.A2C2f           [1152, 768, 2, False, -1, True, 1.2]\n 18                  -1  1   5309952  ultralytics.nn.modules.conv.Conv             [768, 768, 3, 2]              \n 19             [-1, 8]  1         0  ultralytics.nn.modules.conv.Concat           [1]                           \n 20                  -1  2   5612544  ultralytics.nn.modules.block.C3k2            [1536, 768, 2, True]          \n 21        [14, 17, 20]  1   3149017  ultralytics.nn.modules.head.Detect           [3, [384, 768, 768]]          \nYOLOv12x summary: 488 layers, 59,121,849 parameters, 59,121,833 gradients, 199.8 GFLOPs\n\nTransferred 1239/1245 items from pretrained weights\n\u001b[34m\u001b[1mDDP:\u001b[0m debug command /usr/bin/python3 -m torch.distributed.run --nproc_per_node 2 --master_port 44343 /root/.config/Ultralytics/DDP/_temp_yfal1ju2133164830619856.py\nUltralytics 8.3.169 🚀 Python-3.11
…
